…
| precision_recall_curve  | (array([0.10324691, 0.58578872, 1.        ]), |
|                         |  array([1.        , 0.88660775, 0.        ]), |
|                         |  array([0, 1]))                               |
+-------------------------+-----------------------------------------------+
  --- Results (end) ---

Model: "functional_2"
┏━━━━━━━━━━━━━━━━━━━━━━━━━━━━━━━━━┳━━━━━━━━━━━━━━━━━━━━━━━━┳━━━━━━━━━━━━━━━┓
┃ Layer (type)                    ┃ Output Shape           ┃       Param # ┃
┡━━━━━━━━━━━━━━━━━━━━━━━━━━━━━━━━━╇━━━━━━━━━━━━━━━━━━━━━━━━╇━━━━━━━━━━━━━━━┩
│ input_layer_2 (InputLayer)      │ (None, 128, 109, 1)    │             0 │
├─────────────────────────────────┼────────────────────────┼───────────────┤
│ conv2d_4 (Conv2D)               │ (None, 127, 108, 32)   │           160 │
├─────────────────────────────────┼────────────────────────┼───────────────┤
│ max_pooling2d_4 (MaxPooling2D)  │ (None, 63, 54, 32)     │             0 │
├─────────────────────────────────┼────────────────────────┼───────────────┤
│ conv2d_5 (Conv2D)               │ (None, 62, 53, 64)     │         8,256 │
├─────────────────────────────────┼────────────────────────┼───────────────┤
│ max_pooling2d_5 (MaxPooling2D)  │ (None, 31, 26, 64)     │             0 │
├─────────────────────────────────┼────────────────────────┼───────────────┤
│ flatten_2 (Flatten)             │ (None, 51584)          │             0 │
├─────────────────────────────────┼────────────────────────┼───────────────┤
│ dense_4 (Dense)                 │ (None, 128)            │     6,602,880 │
├─────────────────────────────────┼────────────────────────┼───────────────┤
│ dropout_2 (Dropout)             │ (None, 128)            │             0 │
├─────────────────────────────────┼────────────────────────┼───────────────┤
│ dense_5 (Dense)                 │ (None, 2)              │           258 │
└─────────────────────────────────┴────────────────────────┴───────────────┘
 Total params: 19,834,664 (75.66 MB)
 Trainable params: 6,611,554 (25.22 MB)
 Non-trainable params: 0 (0.00 B)
 Optimizer params: 13,223,110 (50.44 MB)


job: {
    "jobId": "ASVspoof-2019_training_split147_epoch10",
    "inputFileBatchSize": null,
    "outputFolder": "output",
    "dataPathRootRaw": "$HOMEDRIVE$HOMEPATH/workspace/Deepfake/data/ASVspoof-2019",
…
