Model: "functional_182"
┏━━━━━━━━━━━━━━━━━━━━━━━━━━━━━━━━━┳━━━━━━━━━━━━━━━━━━━━━━━━┳━━━━━━━━━━━━━━━┓
┃ Layer (type)                    ┃ Output Shape           ┃       Param # ┃
┡━━━━━━━━━━━━━━━━━━━━━━━━━━━━━━━━━╇━━━━━━━━━━━━━━━━━━━━━━━━╇━━━━━━━━━━━━━━━┩
│ input_layer_182 (InputLayer)    │ (None, 128, 109, 1)    │             0 │
├─────────────────────────────────┼────────────────────────┼───────────────┤
│ conv2d_364 (Conv2D)             │ (None, 126, 107, 32)   │           320 │
├─────────────────────────────────┼────────────────────────┼───────────────┤
│ max_pooling2d_364               │ (None, 63, 53, 32)     │             0 │
│ (MaxPooling2D)                  │                        │               │
├─────────────────────────────────┼────────────────────────┼───────────────┤
│ conv2d_365 (Conv2D)             │ (None, 61, 51, 64)     │        18,496 │
├─────────────────────────────────┼────────────────────────┼───────────────┤
│ max_pooling2d_365               │ (None, 30, 25, 64)     │             0 │
│ (MaxPooling2D)                  │                        │               │
├─────────────────────────────────┼────────────────────────┼───────────────┤
│ flatten_182 (Flatten)           │ (None, 48000)          │             0 │
├─────────────────────────────────┼────────────────────────┼───────────────┤
│ dense_364 (Dense)               │ (None, 128)            │     6,144,128 │
├─────────────────────────────────┼────────────────────────┼───────────────┤
│ dropout_182 (Dropout)           │ (None, 128)            │             0 │
├─────────────────────────────────┼────────────────────────┼───────────────┤
│ dense_365 (Dense)               │ (None, 2)              │           258 │
└─────────────────────────────────┴────────────────────────┴───────────────┘
 Total params: 18,489,608 (70.53 MB)
 Trainable params: 6,163,202 (23.51 MB)
 Non-trainable params: 0 (0.00 B)
 Optimizer params: 12,326,406 (47.02 MB)

---- Testing (start) ----
start time: 2025-04-11T19:20:21.977496+00:00
end time: 2025-04-11T19:21:32.039002+00:00
elapsed: 0:01:10.061506

model file: results/2025-03-24T22-21-36.689419/01_ASVspoof-2019_training_2025-03-25T07-47-11.409349_random_000186.libjob
…
