…
| precision_recall_curve  | (array([0.10324691, 0.66156202, 1.        ]), |
|                         |  array([1.        , 0.82229776, 0.        ]), |
|                         |  array([0, 1]))                               |
+-------------------------+-----------------------------------------------+
  --- Results (end) ---

Model: "functional"
┏━━━━━━━━━━━━━━━━━━━━━━━━━━━━━━━━━┳━━━━━━━━━━━━━━━━━━━━━━━━┳━━━━━━━━━━━━━━━┓
┃ Layer (type)                    ┃ Output Shape           ┃       Param # ┃
┡━━━━━━━━━━━━━━━━━━━━━━━━━━━━━━━━━╇━━━━━━━━━━━━━━━━━━━━━━━━╇━━━━━━━━━━━━━━━┩
│ input_layer (InputLayer)        │ (None, 128, 109, 1)    │             0 │
├─────────────────────────────────┼────────────────────────┼───────────────┤
│ conv2d (Conv2D)                 │ (None, 127, 108, 32)   │           160 │
├─────────────────────────────────┼────────────────────────┼───────────────┤
│ max_pooling2d (MaxPooling2D)    │ (None, 63, 54, 32)     │             0 │
├─────────────────────────────────┼────────────────────────┼───────────────┤
│ conv2d_1 (Conv2D)               │ (None, 62, 53, 64)     │         8,256 │
├─────────────────────────────────┼────────────────────────┼───────────────┤
│ max_pooling2d_1 (MaxPooling2D)  │ (None, 31, 26, 64)     │             0 │
├─────────────────────────────────┼────────────────────────┼───────────────┤
│ flatten (Flatten)               │ (None, 51584)          │             0 │
├─────────────────────────────────┼────────────────────────┼───────────────┤
│ dense (Dense)                   │ (None, 128)            │     6,602,880 │
├─────────────────────────────────┼────────────────────────┼───────────────┤
│ dropout (Dropout)               │ (None, 128)            │             0 │
├─────────────────────────────────┼────────────────────────┼───────────────┤
│ dense_1 (Dense)                 │ (None, 2)              │           258 │
└─────────────────────────────────┴────────────────────────┴───────────────┘
 Total params: 19,834,664 (75.66 MB)
 Trainable params: 6,611,554 (25.22 MB)
 Non-trainable params: 0 (0.00 B)
 Optimizer params: 13,223,110 (50.44 MB)


job: {
    "jobId": "ASVspoof-2019_training_split186_epoch10",
    "inputFileBatchSize": null,
    "outputFolder": "output",
    "dataPathRootRaw": "$HOMEDRIVE$HOMEPATH/workspace/Deepfake/data/ASVspoof-2019",
…
